…
    "              input_shape=(150, 150, 3))"
   ]
  },
  {
   "cell_type": "code",
   "execution_count": 6,
   "metadata": {
    "ExecuteTime": {
     "end_time": "2020-06-21T09:16:33.581358Z",
     "start_time": "2020-06-21T09:16:33.576219Z"
    }
   },
   "outputs": [
    {
     "name": "stdout",
     "output_type": "stream",
     "text": [
      "Model: \"vgg16\"\n",
      "_________________________________________________________________\n",
      "Layer (type)                 Output Shape              Param #   \n",
      "=================================================================\n",
      "input_1 (InputLayer)         (None, 150, 150, 3)       0         \n",
      "_________________________________________________________________\n",
      "block1_conv1 (Conv2D)        (None, 150, 150, 64)      1792      \n",
      "_________________________________________________________________\n",
      "block1_conv2 (Conv2D)        (None, 150, 150, 64)      36928     \n",
      "_________________________________________________________________\n",
      "block1_pool (MaxPooling2D)   (None, 75, 75, 64)        0         \n",
      "_________________________________________________________________\n",
      "block2_conv1 (Conv2D)        (None, 75, 75, 128)       73856     \n",
      "_________________________________________________________________\n",
      "block2_conv2 (Conv2D)        (None, 75, 75, 128)       147584    \n",
      "_________________________________________________________________\n",
      "block2_pool (MaxPooling2D)   (None, 37, 37, 128)       0         \n",
      "_________________________________________________________________\n",
      "block3_conv1 (Conv2D)        (None, 37, 37, 256)       295168    \n",
      "_________________________________________________________________\n",
      "block3_conv2 (Conv2D)        (None, 37, 37, 256)       590080    \n",
      "_________________________________________________________________\n",
      "block3_conv3 (Conv2D)        (None, 37, 37, 256)       590080    \n",
      "_________________________________________________________________\n",
      "block3_pool (MaxPooling2D)   (None, 18, 18, 256)       0         \n",
      "_________________________________________________________________\n",
      "block4_conv1 (Conv2D)        (None, 18, 18, 512)       1180160   \n",
      "_________________________________________________________________\n",
      "block4_conv2 (Conv2D)        (None, 18, 18, 512)       2359808   \n",
      "_________________________________________________________________\n",
      "block4_conv3 (Conv2D)        (None, 18, 18, 512)       2359808   \n",
      "_________________________________________________________________\n",
      "block4_pool (MaxPooling2D)   (None, 9, 9, 512)         0         \n",
      "_________________________________________________________________\n",
      "block5_conv1 (Conv2D)        (None, 9, 9, 512)         2359808   \n",
      "_________________________________________________________________\n",
      "block5_conv2 (Conv2D)        (None, 9, 9, 512)         2359808   \n",
      "_________________________________________________________________\n",
      "block5_conv3 (Conv2D)        (None, 9, 9, 512)         2359808   \n",
      "_________________________________________________________________\n",
      "block5_pool (MaxPooling2D)   (None, 4, 4, 512)         0         \n",
      "=================================================================\n",
      "Total params: 14,714,688\n",
      "Trainable params: 14,714,688\n",
      "Non-trainable params: 0\n",
      "_________________________________________________________________\n"
     ]
    }
   ],
   "source": [
    "vgg16.summary()"
   ]
  },
  {
   "cell_type": "code",
   "execution_count": 7,
   "metadata": {
…
    "    layer.trainable = False"
   ]
  },
  {
   "cell_type": "code",
   "execution_count": 12,
   "metadata": {
    "ExecuteTime": {
     "end_time": "2020-06-21T09:16:33.646621Z",
     "start_time": "2020-06-21T09:16:33.642970Z"
    }
   },
   "outputs": [
    {
     "name": "stdout",
     "output_type": "stream",
     "text": [
      "Model: \"model_1\"\n",
      "_________________________________________________________________\n",
      "Layer (type)                 Output Shape              Param #   \n",
      "=================================================================\n",
      "input_1 (InputLayer)         (None, 150, 150, 3)       0         \n",
      "_________________________________________________________________\n",
      "block1_conv1 (Conv2D)        (None, 150, 150, 64)      1792      \n",
      "_________________________________________________________________\n",
      "block1_conv2 (Conv2D)        (None, 150, 150, 64)      36928     \n",
      "_________________________________________________________________\n",
      "block1_pool (MaxPooling2D)   (None, 75, 75, 64)        0         \n",
      "_________________________________________________________________\n",
      "block2_conv1 (Conv2D)        (None, 75, 75, 128)       73856     \n",
      "_________________________________________________________________\n",
      "block2_conv2 (Conv2D)        (None, 75, 75, 128)       147584    \n",
      "_________________________________________________________________\n",
      "block2_pool (MaxPooling2D)   (None, 37, 37, 128)       0         \n",
      "_________________________________________________________________\n",
      "flatten_1 (Flatten)          (None, 175232)            0         \n",
      "_________________________________________________________________\n",
      "dense_1 (Dense)              (None, 27)                4731291   \n",
      "=================================================================\n",
      "Total params: 4,991,451\n",
      "Trainable params: 4,731,291\n",
      "Non-trainable params: 260,160\n",
      "_________________________________________________________________\n"
     ]
    }
   ],
   "source": [
    "custom_model.summary()"
   ]
  },
  {
   "cell_type": "code",
   "execution_count": 15,
…
